trained_cnn_model.pth (torch, 212761 bytes, 8 tensors)

convolutional_layers.0.0.weight f4 [8, 1, 3, 3]
00000000: 44e6 d9bd 7e4c f83e d7e8 d93e 4a16 f1be
00000010: 73fa 4dbe 6f09 cebd 8cd2 68bc 06cd 8f3e
00000020: d310 babd b0b3 853e 38a2 123e 9f15 e63e
00000030: 0ef9 d83e 4e68 c53e e87a 823e c544 a63e
00000040: 42f2 f83e e693 29bf 10db 8e3e fa1b 033f
00000050: 07b9 c5be f046 303f e70d 24be b942 d3be
00000060: 9e32 d63e 076f 86be 5346 16bf a939 96be
00000070: fbe5 08bf f5ce d0be 64c6 87be 726c a9bd
00000080: 6c37 0fbb 7600 33be 6444 043f d149 2b3f
00000090: 28f8 0b3d 1a01 ac3e 5689 2e3f 3f4c e2be
000000a0: d490 c6be fcaa 363e 2f69 8fbe f37a 9fbe
000000b0: 0c0a 863d 6caa c63e d459 2b3e 876d 8a3e
000000c0: e81f 0f3e dd38 543e 1b60 0b3f cab0 ffbe
000000d0: 722e ddbe aad2 edbe 0196 be3c b244 d9be
000000e0: 3c8c ebbe d137 073f 9243 453e 8ea4 3a3d
000000f0: feb8 2cbd 4677 053f 3d55 bc3d 04a9 96be
00000100: 47bc 0bbe 4327 c2be 55ab ddbd 4ba7 acbe
00000110: a0f4 9fbe 5ce2 babe fc84 a7bd b7c7 04be
-0.10639623 0.4849586 0.42560455 -0.47087318 -0.2011507 -0.10060393 -0.014210355 0.28086108
-0.0908524 0.26113653 0.14319694 0.4493837 0.42377514 0.3855614 0.25484395 0.32474342
0.48622328 -0.662413 0.27901506 0.51214564 -0.38617727 0.6885824 -0.16020928 -0.41261843
0.41835493 -0.26256582 -0.58701056 -0.29340866 -0.5347592 -0.40782896 -0.26518548 -0.082726374
-0.0021853102 -0.17480645 0.51666856 0.6690951 0.034172207 0.3359459 0.6817831 -0.44198796
-0.3878237 0.17838663 -0.28009936 -0.3114849 0.06544885 0.38801897 0.16733485 0.27036688
0.13977015 0.20724817 0.5444352 -0.49939567 -0.43199497 -0.46449786 0.023264887 -0.42435223
-0.46005428 0.52819544 0.19264057 0.045567088 -0.04216861 0.5213512 0.091959454 -0.29425824
-0.13646041 -0.3792058 -0.108236946 -0.33721384 -0.31241322 -0.36500823 -0.08179662 -0.1296681

convolutional_layers.0.0.bias f4 [8]
00000000: be60 533e f1af b33e 7a0e b23d d0fa afbd
00000010: c3e8 4f3e 3c9b 9d3e b166 f13e 5466 123e
0.20642373 0.3509517 0.086941674 -0.085927606 0.20303635 0.30782497 0.4714866 0.14296848

convolutional_layers.1.0.weight f4 [16, 8, 3, 3]
00000000: 902b dbbd 8552 f1bc e179 d83c 0c12 0f3e
00000010: 10c1 9f3d 2054 5abe d4fe 20bd bdc0 563e
00000020: c64c fe3d 74a1 8e3d 013e 01bc 2de7 0dbb
00000030: 07f5 71be 9737 3dbd 9aa9 aabd f9b5 8dbe
00000040: 8fdb 8bbe 7f6d f7bb 7288 05bc 8765 1a3e
00000050: 78b4 f73d a567 c0bd 31af d5bd 620c 57bd
00000060: e65e 5bbe 4305 d3be 36bf 83be 0caf a0bd
00000070: 0cc5 d53c 6828 83bc c75f 63be f100 6dbe
00000080: 6a2e 3bbd 2ff4 093e 453f c5bd 1888 7dbd
00000090: ed50 a53d 70be febd b630 adbd 1a71 903d
000000a0: 442c 833e ecb8 4cbe 581b 5f3d 2561 943e
000000b0: 1550 063e f3db 223e 7ccd 5cbe fca3 f9bd
000000c0: 6295 343d c6f0 1d3e ac14 03be 6c42 3abe
000000d0: e06d d33e 81ec db3e 6b53 6e3d 02f1 8c3e
000000e0: ec37 c33d bf84 95be 50f8 7e3e 96a9 ff3e
000000f0: 72bb 8ebe b33f 8abe 2750 493e 7c2e cabd
00000100: ed5c b8bd 48b4 f63d a42c 943d 1832 60be
00000110: c958 a73d ec13 ba3c c689 083c bf76 db3b
00000120: cd65 fb3d 6a2b 593e f927 d7bd 899b 053d
00000130: d9e4 223e d855 f23d 86c3 01bd 852d 9b3b
00000140: 6e6d 32bc 4e9d ea3d 32c0 bbbd a084 0bbd
00000150: 46e8 3cbe 3cc6 293d 3cc7 cbbd ea11 e83d
00000160: be4f ddbd 2080 9ebd 0648 673d 376d 11be
00000170: 78b3 f4bc f5d3 10be 77ef 71be d152 40be
00000180: 1fe7 393e cb4c fb3d 0ea8 913d 420b afbe
00000190: 3730 8cbd 2492 72bc a0f6 923c c1c3 89be
000001a0: db54 cabd fc7a 2d3d 2c5e 5bbd cf31 0bbe
000001b0: d349 a23e c4c2 dd3b f80c 023d 0fb8 1e3b
000001c0: c194 423e cdd6 113d ea0e ed3c 4b82 d23d
000001d0: 4a6e 033e a293 a23e 3227 323e ca73 213d
000001e0: b61b 5cbb 9407 283e 4f25 693e 954e 033d
000001f0: 303c 22bd 4041 e43d ef33 c53d 46c8 9a3e
00000200: 24ff 9b3e d1b2 f9bd bd34 d33d d989 393e
00000210: 9ffb fcbc 49c0 5dbe 59d8 75bc 8b05 5abe
00000220: db38 73be 5dc4 85bd e667 1dbc 4bb3 2fbe
00000230: eb35 17be 9c91 a03d 79d1 363d e011 f23d
00000240: f52d cc3d dcfe 22be 77c9 a7bb dc47 09be
00000250: 06b3 14be 32f5 62bd fae2 bcbe c0cb a83d
00000260: c04c d83d e281 c43e a3d8 b2bd e4d4 28bd
00000270: 3d5d ab3a 8d19 3ebe d3ba 203c be7f 3dbe
00000280: 9855 06be 9a84 0c3e d01a d83e 7a88 7f3e
00000290: d59d c4be b609 2e3e 2507 35be 17a5 51be
000002a0: 0984 083c abb6 76be 6d41 693d f8a5 97be
000002b0: ea7d 8abc d5d2 e93d f96e 06bd 4d4c 9c3c
000002c0: 602f 0a3d 6d10 263e 21c2 3e3e 0a3a 063e
000002d0: 65c2 2cbe ab38 b5bc 4f50 ebbc 7215 e4bd
000002e0: 4d74 5b3b 8641 03be 8799 0abe e4c7 23bd
000002f0: bcec 373c a9c2 dc3d 5b56 3fbe 8159 86be
00000300: 7195 e13d 453c 92be 3ea6 2abe c153 d2bd
00000310: 42e8 8ebe 3490 013e 7e42 8d3d 7beb 6dbe
00000320: a865 8fbc 3be9 a9be 0dac 59be e161 9f3d
00000330: b70a 8ebe da2a c3bd 33b1 263e 4f82 41be
00000340: e645 063e e49a 9b3d e4c3 7f3d b3e7 35bd
00000350: e428 80bb 0400 093e 75b5 3abd e56f d4bc
00000360: 980c cdbc 6f5b 11be 3465 7dbe c755 32be
00000370: d109 33be 1f00 3ebe 92c1 26be be14 83bd
00000380: f8a5 223e d93a dbbd 47dd e4bd caaf 5cbd
00000390: 4722 343d b0cb 95bd 226e 4c3d 349e b63c
000003a0: ee09 31bd b2f0 95bc 8cae 553d f5ca 0fbe
000003b0: 8e6f acbc a0fd 84be ddbd f1bd 9075 8dbe
000003c0: b68c 553d 0ee8 05be 94d7 f1bd d2b2 c73c
000003d0: 3f75 74bc 1c4a a9bc 85ca e33d 6006 bdbc
000003e0: 4bda 183c 202b 01bc f828 223b fd55 293e
000003f0: 49f8 0e3e 64c4 04be 7792 febb dbf3 353d
-0.10701668 -0.029458294 0.026425304 0.13971728 0.078004956 -0.21321154 -0.039305523 0.20971961
0.12416987 0.069643885 -0.007888318 -0.0021652684 -0.23628627 -0.046195593 -0.0833313 -0.27677897
-0.27315947 -0.0075508947 -0.008150207 0.15077792 0.120949686 -0.093947686 -0.10433806 -0.052502044
-0.2142292 -0.41214952 -0.2573182 -0.078458875 0.026094936 -0.016010478 -0.22204505 -0.2314489
-0.04569856 0.13472055 -0.09631208 -0.061897367 0.08072076 -0.12438667 -0.084565565 0.070528224
0.2561971 -0.19992417 0.054469436 0.28980365 0.13116486 0.15904216 -0.21562761 -0.12189481
0.044087775 0.15423879 -0.12800854 -0.181894 0.41294765 0.42953876 0.058185022 0.27527624
0.095321506 -0.2920284 0.24899411 0.4993407 -0.27877384 -0.27001724 0.19659482 -0.098721474
-0.09002099 0.12046105 0.07235077 -0.21894109 0.08171231 0.022714578 0.008333629 0.0066975052
0.12275276 0.21207967 -0.10505671 0.032619033 0.15907611 0.1183278 -0.031680606 0.004735651
-0.010890348 0.11455785 -0.09167518 -0.034062028 -0.1844798 0.041448817 -0.0995011 0.11331542
-0.10806225 -0.07739282 0.05646517 -0.14201818 -0.029870734 -0.14143355 -0.23626505 -0.18781592
0.18154572 0.122705065 0.07112132 -0.34188277 -0.06845134 -0.01480535 0.017939866 -0.2690716
-0.09879466 0.042353615 -0.053556606 -0.13593219 0.31696948 0.0067676026 0.03175065 0.0024218594
0.19002058 0.03560524 0.028937776 0.10278758 0.1283504 0.3175326 0.17397764 0.039417066
-0.0033585853 0.16409141 0.22768138 0.032057364 -0.03960818 0.11145258 0.09629046 0.30230922
0.30468094 -0.1219231 0.103127934 0.18118991 -0.030881701 -0.21655382 -0.015005195 -0.21291177
-0.23752157 -0.06531594 -0.009607291 -0.17158239 -0.14766662 0.07840273 0.044633362 0.11819816
0.09969703 -0.15917534 -0.005120452 -0.13406318 -0.14521417 -0.055409618 -0.3689192 0.08241987
0.10561514 0.38380343 -0.087327264 -0.041218653 0.0013074052 -0.18564434 0.009810167 -0.18505761
-0.13118589 0.13722458 0.42207956 0.24954405 -0.38401666 0.16995892 -0.17678507 -0.20473133
0.008332261 -0.2409312 0.05694716 -0.29618812 -0.016905744 0.11417166 -0.032820676 0.019079352
0.033736587 0.16217203 0.18628742 0.13108078 -0.1687103 -0.022121748 -0.028724818 -0.11136903
0.0033486069 -0.12817964 -0.13535129 -0.039985552 0.0112258755 0.10779316 -0.18685286 -0.2624016
0.11014832 -0.28561607 -0.16664979 -0.10269881 -0.27911574 0.12652665 0.06897448 -0.2323436
-0.017504528 -0.33185753 -0.21257038 0.07782341 -0.2774255 -0.09529658 0.16278534 -0.18897365
0.13112602 0.075979024 0.062442675 -0.04441042 -0.0039111245 0.13378912 -0.045583207 -0.025932262
-0.02503042 -0.14195035 -0.24745637 -0.17415534 -0.17484213 -0.18554734 -0.16284779 -0.06400441
0.15883625 -0.10704584 -0.11175018 -0.053878583 0.043978002 -0.07314241 0.04990972 0.022292234
-0.04322236 -0.018303249 0.052168414 -0.14042266 -0.021049287 -0.2597475 -0.11803792 -0.27628756
0.052136146 -0.13076803 -0.118086964 0.02437726 -0.014920532 -0.02066522 0.11122612 -0.023074329
0.009329389 -0.007883817 0.0024743658 0.16536708 0.13961901 -0.12965542 -0.007768925 0.04442201

convolutional_layers.1.0.bias f4 [16]
00000000: aefb d73c a80b 00bd c5ec e7bd 3e58 643d
00000010: acbd 80b9 ff96 d4bc dba1 9f3c be09 e03d
00000020: 5254 3a3c f23a 883c ff61 35be 66e4 8c3a
00000030: 3e1c 95bd ac43 b2bc d8a9 81bd 7ff4 2cbd
0.026365127 -0.031261116 -0.11324457 0.055748217 -0.0002455538 -0.025950907 0.019486358 0.10939358
0.011372643 0.01662967 -0.17713164 0.001074922 -0.072807774 -0.021760784 -0.06331223 -0.042225357

fully_connected_layers.1.weight f4 [64, 784]
00000000: 4100 893c c68e 633c b4e6 f7b9 7642 87bb
00000010: 4dfa a43c 1154 fdbb c232 a1bc d1e5 883c
00000020: a3ad d5bc 46ce 90bc 7e89 b33c 54ac 823b
00000030: 3712 ec3c b322 0dbc 1c4c d83b 8ff1 01bd
00000040: 3cb4 0ebc 072a afbc 7e2d 31bd 9f6d a83c
00000050: 1718 3fbc ab46 193d 300a 9f3b ab8c ddbc
00000060: 7c0b ad3c 54d9 03bc 948c eabc d071 ed3b
00000070: a110 103d 47cd fc3c 5c84 23bc 3c62 37bc
00000080: adb3 e9bc 682b 80bc 7b61 1cbb f2b2 acbc
00000090: df09 b7bc f1bf 94bb 3a7b d33c c5f5 12bd
000000a0: 4c57 95bb 133a 2ebd aa82 35bb 7709 16bd
000000b0: 1caa 353c ec34 7b3c df6e a33b b278 29bd
000000c0: fcbb e4b7 5357 96ba 1d87 bdbc 54bd d7bb
000000d0: 58d5 9dbc f51b 38bd 7494 823c afc7 083c
000000e0: bb83 3bbd 4166 7e3c 2697 283b 7dc9 a03c
000000f0: 3441 07bb 8794 023d d820 033d da05 03bd
00000100: d4b5 bdbc b7e2 92bb fd0a 2bbd 4f78 c6bc
00000110: 45ef c2bc ddee 0c3d a1b0 353d 16d8 07bd
00000120: 4908 853c 6733 b7bc c4ac 02bd c205 0abc
00000130: 38ef 24bc b637 8b3c b6f3 6ebb 8b6d f6bb
00000140: 1788 0ebd 5ed0 683c 02a8 b5bc 3655 1e3c
00000150: af54 afbc 09cb 9c3c 49fe 09bd 2622 01bd
00000160: 0419 dc3c 51fb c53c 4580 27bd b7fe a93c
00000170: c87d 8abc cea2 03bb a6cb 0f3d ff31 db3c
00000180: a668 43bd 9724 77bc dae2 2bbd 96e6 02bd
00000190: 79fa 05bb 0237 afbc 874e 0f3c 9578 e2bc
000001a0: 3b66 71bb 5cbc 12bd 5479 2bbd b16c 7abc
000001b0: 33fb 92ba 541f 10bd df86 9dbb 3dea 983c
000001c0: 9cf1 8c3c a5ca e5bc 7aac 04bd fbb8 a93c
000001d0: 104a 44bc 697b c0bc c186 0fbd 78cc 933c
000001e0: ad48 aebc f1c0 333c 1132 89bc 3065 4e3a
000001f0: 30c2 52bc d500 2abd 7267 21bd 1363 0bbd
00000200: 6189 bebc b271 92bc 0c78 68bd e002 96bb
00000210: 0fbe c43c 8b26 a93c aa92 ecbc 8be0 943b
00000220: e526 c8bc b5a2 32bd fdec ffbc 3298 21bd
00000230: 7ac9 17bd f602 b0bc b6ae fcbc efe4 58bd
00000240: b2f9 27bc 6ecf afbc 15d3 a43c 249e 3d3c
00000250: e401 ebbc 2dd4 07bd 33d3 22bd bb7f b73c
00000260: eb96 22bd 57c0 bf3c c48a 07bc 9232 0dbd
00000270: ecfb 9ebc e456 66ba ca2f ce3c a656 9fbc
00000280: b433 cdbc 91c6 49bc 9c08 34bc 1e47 e0bc
00000290: b9b5 09bd fb7e d3bc 4e9d 703c 91c4 3abd
000002a0: fa14 03bd 6422 423b 7f21 0fbd 390a fd3c
000002b0: 0acc 38bd 60b3 bb3c 48ee a13c 9508 cfbc
000002c0: ca07 5fbc 1995 2ebd 736a 8a3c 3259 6c3c
000002d0: 660b 2bbd 5996 173c 8fe5 59bc 8e83 df3b
000002e0: 293d 11bb 1282 f93b 99e3 cf3c d295 28bd
000002f0: 3f76 07bd 9dd3 8c3c 79e0 f4bb b1eb 28bd
00000300: 02b9 afbc 1f64 46bc efab 00bd 1dfb 2dbd
00000310: 4268 adbc 4a86 ea3c ddf1 a3bc d1e0 b1bb
00000320: 1b3a 003d b859 703c d46f 03bd b17f 8f3b
00000330: 6752 f9bc b113 d2bc ffdc 173c a598 943c
00000340: 199f c93c 8aba 5f3c a75c 28bd 4381 33bd
00000350: af97 543c 3a4b 2fbd e38b d33b daaa d0bb
00000360: f207 dcbc 5801 103d 1143 c93c bd4a ad3c
00000370: 9248 a6bc 5a5a ebbc ae89 973c c933 18bb
00000380: 8d02 fe3c 84d7 9e3b 96bf c4bc baf7 143c
00000390: e9b9 283c 25bc bd3c 9487 ed3b 40a2 e83c
000003a0: e4e0 243d 1f28 a73c 2d09 253c 1208 09bb
000003b0: c9a9 0bbd 5a12 68bc 2480 873b 66d1 c4bc
000003c0: 9523 083b 004b 8ebc afa6 b23c 05a0 c3bc
000003d0: 318f c5bb 1013 a5bc 2470 aebc 033f 763b
000003e0: 7a86 88bc c996 ed3b 23b6 003c 41f8 17bd
000003f0: 33c9 cbbc a43d d13c 7b85 623c e780 803c
0.016723754 0.01388902 -0.00047283398 -0.004127796 0.020138884 -0.0077309688 -0.019677524 0.016711148
-0.026083773 -0.017676484 0.021916147 0.0039878283 0.02881728 -0.00861423 0.00660087 -0.03172451
-0.008709963 -0.021382345 -0.043256275 0.020560084 -0.011663458 0.03742091 0.0048535094 -0.027044615
0.02112364 -0.0080474205 -0.028631486 0.0072462335 0.03517211 0.030859603 -0.009980287 -0.0111928545
-0.028528059 -0.015645698 -0.0023861814 -0.021081422 -0.022343574 -0.0045394828 0.025815595 -0.035878915
-0.0045575257 -0.042535853 -0.002769629 -0.03663012 0.0110879205 0.015332442 0.004987582 -0.04137487
-2.7267255e-05 -0.0011470116 -0.023135716 -0.006583849 -0.01926677 -0.044948537 0.015939929 0.0083483895
-0.045779925 0.015527309 0.0025724857 0.019627327 -0.002063823 0.031879928 0.032013744 -0.031988002
-0.023157991 -0.004482593 -0.041758526 -0.02422729 -0.023795733 0.034407485 0.0443579 -0.03316506
0.016239302 -0.022363378 -0.031903043 -0.008424224 -0.0100668 0.016994338 -0.003646118 -0.0075203828
-0.034797754 0.014209835 -0.022174839 0.009663871 -0.021402685 0.019139783 -0.03368977 -0.031526707
0.026867397 0.024167689 -0.04089381 0.02075134 -0.01690568 -0.0020086053 0.035106324 0.026757238
-0.047707222 -0.015084407 -0.04196439 -0.031958185 -0.0020443483 -0.021388534 0.00874675 -0.027645389
-0.0036834616 -0.035824165 -0.041863754 -0.015284703 -0.0011213779 -0.035186127 -0.0048073377 0.018666381
0.017205052 -0.02805073 -0.03239105 0.020718088 -0.0119805485 -0.023496347 -0.03504062 0.018041834
-0.021274889 0.010971294 -0.016747506 0.00078733545 -0.012863681 -0.0415047 -0.039405294 -0.03403003
-0.023258867 -0.01787648 -0.05675511 -0.0045779794 0.024016408 0.020648262 -0.028878529 0.004543369
-0.024432609 -0.0436122 -0.031240935 -0.039451785 -0.037057377 -0.021485787 -0.030845027 -0.052952703
-0.010252403 -0.021461215 0.020120183 0.011573348 -0.028687425 -0.03316133 -0.039752197 0.022399774
-0.039694708 0.023407144 -0.00827283 -0.034472056 -0.019407235 -0.00087867514 0.025169272 -0.019450497
-0.025049068 -0.012315408 -0.010988381 -0.027377661 -0.03362057 -0.025817385 0.014685942 -0.045597617
-0.032002427 0.002962255 -0.034944054 0.030888664 -0.04511646 0.022912681 0.019766942 -0.025272647
-0.013612697 -0.04262266 0.016896462 0.014425563 -0.041758917 0.009252154 -0.01329936 0.0068211025
-0.0022161698 0.0076143825 0.025377082 -0.041158505 -0.033071753 0.017190749 -0.0074730483 -0.041240398
-0.021450523 -0.012108832 -0.03141397 -0.04247581 -0.021167878 0.028628487 -0.02001279 -0.0054284115
0.031305414 0.014669828 -0.03208907 0.0043792357 -0.0304348 -0.025644155 0.009268998 0.018139193
0.024611996 0.013655314 -0.041103985 -0.043824445 0.012975617 -0.04279635 0.006455885 -0.0063680233
-0.026859257 0.03515753 0.024568113 0.021153802 -0.020298276 -0.028729606 0.018498268 -0.0023224226
0.031007076 0.004847469 -0.024017137 0.009092266 0.010298231 0.023161003 0.007248828 0.02839768
0.040253535 0.020404873 0.010072988 -0.0020909351 -0.034097467 -0.014164532 0.0041351486 -0.02402563
0.0020773162 -0.017369747 0.021807997 -0.023880014 -0.0060290326 -0.020150691 -0.021293707 0.003757418
-0.016665686 0.007250641 0.007855925 -0.037101988 -0.024876213 0.025542088 0.01382577 0.015686465

fully_connected_layers.1.bias f4 [64]
00000000: d116 28bd 4403 953b 20a4 4fbb 5bf0 253d
00000010: 57f2 2f3d 5eaf 843d c24f 14bc 4352 3a3d
00000020: 11f3 b6bb eb2d 8b3c 81c1 0ebd 02af 4cbd
00000030: f5db f4bc 6b54 5b3d 0ea7 863c 3cc7 f73b
00000040: fae0 a83c 1131 17bd 3292 f23c fd17 8c3d
00000050: db02 8b3c c3c2 f83c 3d91 013b 728a 063b
00000060: ae3a 913c df4b b23c 0345 62bd 093b b6bb
00000070: d6d3 153b 7a70 fbbc ecb6 cdbc e3f1 f63c
00000080: 2cd4 06bc 3471 8abc 9f7d c0bc 9c97 8b3c
00000090: 41db 5abc f716 933c cbd2 08bd a2ef 1e3d
000000a0: 7142 f03c bdd6 3c3d 176a 9e3a 5954 a1bc
000000b0: fba7 e8ba ea98 62bb 80bf 483d e1fd ffbc
000000c0: d5d7 cc3c f961 223d f9b3 efbc 2c32 ea3c
000000d0: 3617 753d d2ca 373d 6c4a d1bc 2f4b 11bd
000000e0: 125f a93c 04f5 103c 00e3 423d 1fdb 78bc
000000f0: 5dfb a1bc ed21 673c 247b b23c 2dea 97bc
-0.041037384 0.0045475084 -0.003168352 0.040512424 0.042955723 0.06478761 -0.009052219 0.045488607
-0.005583175 0.016989669 -0.03485251 -0.049971588 -0.02989004 0.053547304 0.01643708 0.0075615924
0.02061509 -0.036912028 0.029610727 0.06840513 0.016969135 0.030366307 0.0019770407 0.0020529297
0.017728176 0.021764694 -0.055241596 -0.0055612368 0.002286186 -0.030693281 -0.025111638 0.030144637
-0.008229297 -0.016899683 -0.0234974 0.017040066 -0.013357938 0.017955286 -0.033404153 0.03880275
0.029328557 0.046103228 0.0012086061 -0.01969354 -0.0017750257 -0.0034576007 0.049010754 -0.031248989
0.02500526 0.039644215 -0.029260622 0.028588377 0.05983659 0.04487116 -0.025548182 -0.03547209
0.020675216 0.008847479 0.047579765 -0.015188961 -0.01977318 0.01410721 0.021787234 -0.01854428

fully_connected_layers.3.weight f4 [10, 64]
00000000: d760 693c 99df c63d 627e 993d f011 1cbe
00000010: 1185 2f3d 9cae 383e 4cb4 fd3d f28e ad3d
00000020: f0c0 d03d 7244 25bc 9902 053d da73 b3bd
00000030: 1184 99bd 90de aabd 8436 fdbe 894c 09bd
00000040: 77ab 563d bef4 5fbc e0d4 16be f984 283e
00000050: de43 1bbe ce16 12bd 87f6 79bd 3eed e3bd
00000060: 045b 6dbe 0362 a1bd 1984 32be 6dcb b33c
00000070: a929 953d d579 95bc bbb4 aa3d e4f8 12be
00000080: 011c 2ebd cb61 d43d f7c3 923d c1b6 46bc
00000090: f390 853d 1374 ecbd c43e 40bc 6cc6 e7bd
000000a0: d61a 87bd 556d 073e 89f4 823d c07a fc3d
000000b0: c8ce 95be ae40 f03d c8e9 9d3c 4b86 9f3d
000000c0: 7a5b 91bd 065e 34bd b005 85bd b82b 223d
000000d0: ccc1 10be ab40 1abe cdb4 8dbe 5005 95bd
000000e0: 7c3e 0abe 1d84 88bc 5037 123e 01d7 af3d
000000f0: d9b3 38be 234b 3bbd e002 583e 13b7 5a3d
00000100: 9eae b9bd 48e3 a03d 0d04 d8bd 9788 223d
00000110: 00b7 463e 99c9 003e 5e1f 0abe 8ed7 b93d
00000120: c13a 0b3d cb5d 37bc ca8b ffbd 9110 90bc
00000130: 72dd 43be 4097 063e 5578 8bbd fae1 cfbd
00000140: 4798 ebbd 715e a7bd 7304 8c3d c019 ce3d
00000150: b0f2 19be fac0 cbbd 8214 93bc 5a99 b8bc
00000160: 1cfa 6f3c 5191 ddbd 5a61 2f3e d400 2abe
00000170: 7bb8 32be 644c 77bc a21c 283c dfc3 103e
00000180: 3ef1 cb3d 3d7c a73d 0dc2 c939 0198 a63d
00000190: 38dd 403e d96e 83be bc91 ca3d 1afa e43d
000001a0: ffe2 d9bd 2837 113e 47d6 acbe 29d3 213e
000001b0: 6225 413e 3bd0 bcbe 7964 54be 5996 04be
000001c0: 5460 17bd bb17 0a3e 5d30 64be cb76 8fbd
000001d0: ee3d 053e dc4a 093e 4a7a f3bd a6a0 ebbc
000001e0: 9f9e 123c 9e36 4cbd cc41 35be 4dc8 a7bd
000001f0: 83c0 0fbe 86e3 e43d 1d3f 93be 599f ab3d
00000200: a357 55bd 8c11 ccbe 68aa b1bd 274c 9dbe
00000210: 34ba 853d 0925 683e bb71 88be 5be9 abbe
00000220: 2e66 1dbd 1e93 cebd 9a91 6d3c 04fb 173d
00000230: 9347 953d ccac ba3d f825 11be c679 02be
00000240: d8f6 84bd 17fa 21bd 8163 c83d 55d2 d13b
00000250: b304 263e 5c01 80bd 026f c2bb 13d9 a1be
00000260: 999e 023e 9f64 503c cf86 a1bd 1fea 46bd
00000270: ef38 3fbe 4906 b13d 0bc1 a43c 6daa 84bc
00000280: c3cb 003c 55af 823d d79f bbbc 0039 873d
00000290: 0753 8bbe 99f7 e8bc 29e8 d3bc 506c 24be
000002a0: c0b7 5b3d 621d 0f3e 10d3 cebd 1d81 573d
000002b0: c962 36be 4f6b cabd 1f9c 1d3e 0112 02bd
000002c0: 11e9 163c a3a9 c0bd 4f94 f83d 8337 153e
000002d0: 6623 383e 74d9 2ebd 4e53 d93d 56f0 583d
000002e0: 856d 1e3e b57c d83c c924 1a3e 6ae6 d63d
000002f0: 16a8 b8be 3193 f03d 0c67 d2bc 20cd 1e3d
00000300: 53f9 a93c 78d9 ddbc 113f c3bd 6896 96bd
00000310: 6aec b3be 14be 97be 119f f1bd f13f 98be
00000320: fa58 533e a36c 903d 6f97 cf3d 4b7c 0ebd
00000330: 3fd3 b53d 909d 8ebe 8deb d3bc ddc2 8c3d
00000340: dc4e 92bc 2f5f 013d 346c 84be f9d9 513b
00000350: 1e2f 8b3d 77d6 f93c 3a49 cfbc 5949 e93d
00000360: f7bb 9dbe 3b54 ee3d 749d 8fbd dc22 4c3e
00000370: 6301 20be 7b08 a3bd 1ef8 d1bc de5c aebc
00000380: fb7b 01be 7e23 d13d 2065 8d3d 85db 94be
00000390: 5b86 5bbe f342 0f3e 1f84 94bd e6e5 b1bd
000003a0: 29bc 05be b04a 89bd 3936 8abe 36fe 0d3e
000003b0: bfab 583e b3dc 98bd eb71 63bd ca45 5c3d
000003c0: 906d 233d bc5f 063e 8621 40bd 8bac 393d
000003d0: a168 063c 7312 ac3d 9151 c63d e7b3 773d
000003e0: 21d3 6dbe c57a 1c3e 3d0d 6f3d 2118 eb3d
000003f0: 8f17 c03d a2f8 983d a4f4 37bd 176a fdbd
0.01424428 0.097106166 0.07494809 -0.15241218 0.04285151 0.18035358 0.123879045 0.0847453
0.1019305 -0.010087119 0.03247318 -0.08762331 -0.07495893 -0.08343232 -0.49455655 -0.033520255
0.052409615 -0.013669191 -0.14729643 0.16456975 -0.15162608 -0.03566628 -0.061026122 -0.11129235
-0.23179251 -0.078800224 -0.17433204 0.021947587 0.07283337 -0.01824657 0.08335253 -0.14352757
-0.042507175 0.10370215 0.071662836 -0.012128533 0.065217875 -0.11545577 -0.0117337145 -0.11317143
-0.065969154 0.132253 0.06394298 0.123281 -0.29259324 0.11731087 0.019276515 0.07789286
-0.07097526 -0.04403498 -0.064952254 0.039592475 -0.14136428 -0.15063731 -0.27677003 -0.07276404
-0.13500398 -0.016664559 0.14278913 0.085859306 -0.18037356 -0.045725953 0.21094847 0.05339725
-0.09066509 0.078558505 -0.105476476 0.039681043 0.19405746 0.12576903 -0.13488528 0.09074317
0.03399158 -0.011191796 -0.124778345 -0.017586024 -0.19127443 0.13143635 -0.06810061 -0.101505235
-0.11503654 -0.0817231 0.06836786 0.10063505 -0.15033984 -0.09948917 -0.017954115 -0.022534061
0.014647033 -0.108187325 0.1712698 -0.16601878 -0.17453186 -0.015093897 0.010260733 0.14137219
0.09958123 0.081779934 0.00038482287 0.08134461 0.18834388 -0.25670508 0.09891078 0.111805156
-0.10638999 0.14181197 -0.3375723 0.15803207 0.18861917 -0.36877617 -0.20741452 -0.12947978
-0.0369571 0.13485615 -0.22284074 -0.0700508 0.13011906 0.13407463 -0.11888559 -0.028763127
0.008948951 -0.049856775 -0.17700881 -0.08192501 -0.14038281 0.11176209 -0.2875909 0.083800025
-0.05208553 -0.39857137 -0.086750805 -0.30722162 0.06529656 0.22670378 -0.2664927 -0.33576474
-0.038427524 -0.10086654 0.014500046 0.03710462 0.07289042 0.0911499 -0.1417464 -0.12741765
-0.06492394 -0.039545145 0.09784604 0.0064032474 0.1621273 -0.06250259 -0.0059336433 -0.31610927
0.12755813 0.012719302 -0.07887041 -0.04856312 -0.18674062 0.08643777 0.020111581 -0.016194547
0.007861081 0.06381098 -0.022903366 0.06602669 -0.27211782 -0.028438376 -0.025867539 -0.16056943
0.053642035 0.13976052 -0.10098851 0.052613366 -0.17811121 -0.09883749 0.15391587 -0.03175545
0.009210841 -0.09407356 0.121376626 0.14571957 0.17982253 -0.04268785 0.10611592 0.052963577
0.15471466 0.026426652 0.15053095 0.10493167 -0.3606574 0.117468245 -0.025683902 0.03876984
0.02074877 -0.027081236 -0.09533513 -0.073529065 -0.35141307 -0.29637206 -0.11797918 -0.29736283
0.2063941 0.07051971 0.101363055 -0.034786504 0.088781826 -0.27854586 -0.025869155 0.06873105
-0.017859869 0.031584915 -0.25863802 0.003202079 0.06796096 0.030497773 -0.025303472 0.11390943
-0.30807468 0.116371594 -0.07012454 0.19935173 -0.15625529 -0.07960602 -0.025631007 -0.021284517
-0.12644951 0.10211848 0.06904054 -0.2907373 -0.21437971 0.13990383 -0.072517626 -0.08686428
-0.13060059 -0.06703699 -0.26994494 0.13866505 0.21159266 -0.0746397 -0.055528563 0.053777494
0.03989941 0.13122457 -0.04690697 0.045330565 0.008203656 0.084019564 0.09683526 0.060474303
-0.2322507 0.15281208 0.058362234 0.114792116 0.093794934 0.07469298 -0.04491104 -0.12373751

fully_connected_layers.3.bias f4 [10]
00000000: a88a 3b3d 3f4e 003e 238e df3d baa1 d4bd
00000010: 719f 12be 128a 3d3c b7bc b5bd 8ac0 173d
00000020: 2b3a 97bd f83d ce3c
0.04578653 0.12529849 0.10915782 -0.103824094 -0.14318635 0.011568563 -0.08873885 0.037048854
-0.073841415 0.025176033
