trained_cnn_model.pth (torch, 422361 bytes, 8 tensors)

convolutional_layers.0.0.weight f4 [16, 1, 5, 5]
00000000: 80c7 383e bff3 b2bb 4ff2 c5bd 2abe 3abe
00000010: b1b8 02bd da69 3a3e b1ca de3d 2c5a 11be
00000020: d6e4 683d d40a de3d 0fe0 a5bd 091e 4bbe
00000030: b1a8 82be 235d f0bc c92d b5bc 55bd 1ebe
00000040: fac0 2f3c 78b4 353e fdfa ae3d df6e 41bd
00000050: 8fdc 753e 45f7 853e 3c0c 683e edcb b5bd
00000060: b2e1 223e cda9 3f3e 6d03 efbc cd20 1e3e
00000070: 87e4 f2bd 358b 313e 3265 7ebe ca7d 68be
00000080: 1a94 ba3d 4089 663e 8f49 4c3e 8949 373d
00000090: 3987 97bc b76b 88bd 5348 833d 386a 583e
000000a0: 7e8f 49be 5d81 343e 5700 023d 8da0 eebd
000000b0: 1742 64be e96c ef3d 60b6 dbbd d192 07be
000000c0: c45e 1abe 86db 9ebc f276 27be a36b b1bd
000000d0: 6252 103e edf6 d1bc 0fda c039 b362 1dbe
000000e0: 2a14 703d 60c7 063e a1ac 30be 99a9 0b3d
000000f0: 5be9 3dbd 8c7a 5e3e f171 fe3d 573c 94be
00000100: b526 a1be 73dc 9f3d 5033 783e 6f02 743e
00000110: 146e 88be 75ee fdbd 5838 c3bd 6397 253e
00000120: 3cad 4a3e 1ec3 033e 5159 42bd 6707 7fbe
00000130: 48fc 33be c371 2dbe 73de 75be fa7e 0fbe
00000140: b912 16bd 3094 73be 7f56 48be 96f8 46bd
00000150: 22d8 62be ac62 403e cfdb 663e 2687 b6bd
00000160: 785c 0d3e 97f7 543e ff78 a63e 1de5 38bc
00000170: 9cf7 753e 3956 a93d 917e 393e 25b2 0ebd
00000180: 0f99 10bd 58d5 873e 13b2 163e 70c6 a4bd
00000190: 8946 3dbe 1ca0 393d 31a1 93bd 68c0 413c
000001a0: b257 0d3e d3da 803d ba5f 75bd 48cd d53c
000001b0: 030c 753e 11c0 863e 1d3f 8abc 44cb 91be
000001c0: 7b31 7bbe 5e4c 6e3e 5484 723e fc69 35be
000001d0: 26ac ddbd b540 223e 09a1 363e 8db3 5e3e
000001e0: 3d08 3ebe c04a 70be 118c c43d 03e5 7c3e
000001f0: 5b63 623e 3f04 4bbe bca3 123d da97 10bd
00000200: 1b33 52be 7a90 b8bd 96a6 ec3d 78bb 2dbe
00000210: b2a9 74bc 1b19 f73d 015c 043d 44a9 863e
00000220: 1edd 753e 035a 2dbe e950 38be fb3a 1f3e
00000230: b0fd 4e3e 6841 05be fc98 3cbe a1a3 2e3e
00000240: d37c 5e3e 1378 15be abf3 21be 476e a63d
00000250: 4eac 26bd afb1 253e c6fc b93d 8e5f 3fbe
00000260: 562e 2abd df74 30be a0cd 57bd 6971 a2bd
00000270: 8e28 2e3e 8675 623e f1e4 d53d 2b87 e73c
00000280: 2015 fabd 1a72 df3d e22d 053e cdf8 623e
00000290: 1ef5 9b3a ff17 c43d bb42 3abe a9d8 98be
000002a0: 3c0b 8bbd 67cb fa3c 820f 1c3b 0b76 e03d
000002b0: ae6f 61be e3bd eb3d 3c3a 833e 9d4b ecbd
000002c0: 2c62 afbd ec31 5fbe 843b 95be 991b 91be
000002d0: f23c 8f3d 60c0 b93d 9eb7 2fbd 2a35 203e
000002e0: c1af f93d d6eb aa3d ce8b 2f3d ae06 6a3e
000002f0: 4f08 0c3e e92a 153e 2ec3 4ebe 8c89 1abe
00000300: a32f c63d 62ab 823e 5acb 753e 63a6 91be
00000310: ce35 64be 91df 453d 0bca 92bd 893d 6d3e
00000320: f192 2bbe 6833 90bc edc5 913e 74bd c43d
00000330: 747e 6fbe b8cf 3fbe 5fc7 a6bd 6aec b93e
00000340: d9a8 b1bc 1b92 50be 2957 25be 04df 55bc
00000350: 42c5 403e 2115 903e 37ca 05be 7f82 28be
00000360: c07f 84bd 7d16 f4bd 0a23 8f3e a4e3 833e
00000370: 1742 d1bd 29d7 49bd a75c 8abd 123b 8b3e
00000380: 8651 893d a284 1ebe 9830 ff3c 76b5 debd
00000390: db84 123e bd08 7f3e 5b72 82ba eb9b aabd
000003a0: 79c1 383b fde0 133d 247a 163e 4587 eabd
000003b0: b0e2 0abe b303 d2bd a341 ba3e c3f3 d03c
000003c0: a548 1cbe dfe6 393e d9d6 8c3e ed51 9a3e
000003d0: a2e7 0dbd 2025 1cbe 77a5 463e e2ec 863c
000003e0: 025e 04bd 279c 7fbe f65a 9b3d 6cb7 c73d
000003f0: bc3b 3e3e 99b3 833e 939c 2a3e 2a30 9d3d
0.18044853 -0.0054611857 -0.09665357 -0.18236604 -0.031914417 0.18204442 0.10878504 -0.14194554
0.05685886 0.10841909 -0.080993764 -0.19835676 -0.25519326 -0.029341286 -0.022116559 -0.15501912
0.010727162 0.17744625 0.08543966 -0.047224876 0.24009918 0.26165214 0.22660917 -0.088767864
0.15906408 0.18717118 -0.029176438 0.154422 -0.118599944 0.1733826 -0.2484329 -0.22704235
0.091102794 0.22513294 0.19949935 0.044747863 -0.018497096 -0.0666117 0.06410279 0.21134269
-0.19683644 0.17627473 0.031738605 -0.116517164 -0.22290836 0.11690695 -0.10728145 -0.132396
-0.15075213 -0.019391786 -0.16353968 -0.08663108 0.14093927 -0.025630439 0.0003678356 -0.15369682
0.05861298 0.13161993 -0.17253353 0.034097288 -0.046365123 0.21726435 0.12424076 -0.28952286
-0.31474844 0.07805719 0.24238324 0.23829053 -0.26646483 -0.12398998 -0.09532231 0.1617103
0.19792646 0.128674 -0.04744846 -0.24905168 -0.17576706 -0.16937928 -0.24010639 -0.14013281
-0.03663895 -0.23786998 -0.19564246 -0.048576914 -0.2215276 0.1878764 0.22544788 -0.08912496
0.13804805 0.20797573 0.32514188 -0.011285094 0.24020237 0.08268399 0.18114688 -0.03483786
-0.035302218 0.26529956 0.14716367 -0.080456614 -0.18483938 0.045318708 -0.07208479 0.011825658
0.13802984 0.062917374 -0.059905745 0.026098862 0.23930363 0.2631841 -0.016875798 -0.28475392
-0.24530594 0.2327132 0.23683292 -0.17716211 -0.1082385 0.15844996 0.17834868 0.2174818
-0.1855783 -0.23466015 0.09597028 0.24696736 0.22108214 -0.19825839 0.03580068 -0.035301067
-0.20527308 -0.09011932 0.11555211 -0.16966045 -0.014933037 0.12065335 0.032314304 0.26301014
0.24010131 -0.16928868 -0.17999615 0.15549843 0.20213962 -0.13013232 -0.18417734 0.17054607
0.21727304 -0.14596586 -0.15815608 0.081265025 -0.040691666 0.16181062 0.09081416 -0.18688795
-0.041548096 -0.17232083 -0.052686334 -0.079317875 0.17007658 0.22115144 0.10444058 0.028262695
-0.122110605 0.10910435 0.13005784 0.22165222 0.0011898612 0.095748894 -0.18189518 -0.298528
-0.06789252 0.030614568 0.0023812954 0.10960015 -0.22015259 0.115108274 0.25630367 -0.115378596
-0.08563647 -0.21796387 -0.2914697 -0.28341368 0.06994046 0.09069896 -0.04289972 0.1564528
0.121917255 0.083457634 0.042857938 0.2285411 0.13675044 0.1456715 -0.20191643 -0.15091532
0.09677055 0.2552138 0.24003354 -0.28447255 -0.2228615 0.048308913 -0.07167443 0.23168005
-0.16755272 -0.017602637 0.28471318 0.09606448 -0.23388082 -0.18731582 -0.08143496 0.36313182
-0.021686958 -0.20368235 -0.1614653 -0.013053659 0.18825248 0.2814112 -0.1306542 -0.1645603
-0.06469679 -0.11918352 0.2795642 0.25759614 -0.10217684 -0.04927746 -0.06755953 0.27193505
0.067050025 -0.15480283 0.031151101 -0.10874455 0.14308493 0.24905677 -0.0009952293 -0.0833052
0.002819149 0.036103237 0.1469503 -0.11451582 -0.13563037 -0.10254612 0.36378202 0.02550686
-0.15262087 0.18154477 0.27507666 0.3014063 -0.03464473 -0.15248537 0.19399057 0.016470376
-0.032316215 -0.24961911 0.07585709 0.09751782 0.18577474 0.2572296 0.16661291 0.07675202

convolutional_layers.0.0.bias f4 [16]
00000000: ae5a 8c3d dc33 d63d fd59 84bd 9c0e 403d
00000010: 277d 34ba 649f 373e c054 433e 0f5d 7bbd
00000020: c58c 0f3e a8b3 653e c4a8 663e 4834 f0bc
00000030: 30a9 5c3e c01e 363e b0d9 183c 0e4f e4bd
0.06853233 0.1045911 -0.064624764 0.046888933 -0.0006885104 0.17931896 0.19075298 -0.061368044
0.14018543 0.22431815 0.22525316 -0.029321805 0.21548915 0.17785168 0.0093292445 -0.11147891

convolutional_layers.1.0.weight f4 [16, 16, 3, 3]
00000000: 646f 06be a790 cd3b 3fa8 d7bb 41f1 83bd
00000010: f0d7 2bbe cc58 18be a400 01bd a7da ccbd
00000020: 0fda e3bd 5ea8 f03d b183 803c d29d acbc
00000030: 640b dabc 9cfe 073d dd9d df3d 39f2 fb3c
00000040: aca2 02bd e0bc 89bc 9dbf fabd 048d fbbd
00000050: d6e2 08be 29e4 42be a25a 1bbe a1d3 8b3c
00000060: f033 96bc 2653 bb3d d6d1 753d de8f 243d
00000070: 99a5 823d 6fbc a4bd 26c9 03be eb9d 6d3d
00000080: e526 9bbd 997c 18bb 9dfd 11bc 6e12 a3bd
00000090: 1b80 01bd 0369 1c3c 43a5 e63d 0433 2e3d
000000a0: c76d aa3d b777 94bc 80c5 803d beaa b63d
000000b0: 667a ac3c c9be a13d 888d 623d 66c4 583d
000000c0: 5614 68bd 3583 e93c c626 f73c 853d 01bd
000000d0: 35a9 d9bd 54b7 d8bd 5092 d83c 5618 393d
000000e0: 8f4a c2bc a82d 243d f6c3 9abd 6760 12bd
000000f0: d693 143d 3b6b 88bd 28c4 87b8 b701 df3d
00000100: d1e8 dd3d c712 e33d 54ea 613d b373 f43d
00000110: ffed ab3c ae28 b13d bd1d e2bc ebf8 aabd
00000120: a65a 70bd 43b7 9e3c 38a8 473d d7c9 e6bb
00000130: 6174 8f3d 0db7 88bc 3c36 2d3c 1999 e23c
00000140: 86ed 6cbc 3e77 ca3a 7720 5bbd c1bb 923d
00000150: 09c2 9dbd 7b3e a7bc 181f 0d3c a6b9 79bd
00000160: 4836 b9bc 55ae 5a3d 5fc1 8cbd c028 0cbe
00000170: 0fb0 0bbc 326c aabd 3961 b1bb 6093 2a3d
00000180: 9ced 01be 47bd f53c 78b9 cd3d 37de 97bd
00000190: a2df bbbd bbe8 31bc 2d90 ddbd ea3a 27be
000001a0: 789b 19be b59a bfbd c080 15be 797d 5abd
000001b0: bbce c53c 4802 043e 1f5e 9e3d 0dfa 263d
000001c0: afcb 343d 1387 973c a9c7 c5bd 5ade f7bd
000001d0: 4785 22be 17b0 fb3c 1def 243d fc34 14bc
000001e0: 206c 443c 6192 593d 99ea 803d 1181 e5bd
000001f0: 60ce c3bd e57b 953c 774d 6a3d cc5f 743d
00000200: d073 1ebd 9909 eb3d e2b9 8f3d d639 aa3d
00000210: 666b 0e3d 6978 0bbd 6ac4 153d 5617 cebd
00000220: bd4e 5dbd f402 2d3d f486 28bd af96 0dbd
00000230: 8e3c 043d 58a9 fdbb 4d74 7abb e96f c1bd
00000240: ed31 8fbd f60f d1bd 6d12 1ebd 829f 82bd
00000250: 784d 35be da2d 0ebe 9cab 573d c097 733c
00000260: c8a8 c8bd 14f4 883d 4043 7bba e78d 9f3d
00000270: 2592 0e3e 9715 213e d6b4 5b3d 2e6e dc3c
00000280: 1453 79bb f126 bcbd 1fa7 c63d ee2f 473d
00000290: 4a2c 13be 1e37 c3bc 058b 3abe db89 49be
000002a0: 6e2c 1e3d e641 0f3b fd40 eebc d5e3 da3d
000002b0: 54dd e83c 391b 223e 0b47 3abe 21db 13be
000002c0: 50a5 79bc 6648 80bd 9cf1 693a 9cb5 783d
000002d0: 5b6d 013e 787c 423d 34cc 9ebc c971 02be
000002e0: 6180 16be 952c 02be 959b 1bbe cb29 70bd
000002f0: 20dc bfbd f884 7c3d 0ed2 e33d 1798 c23d
00000300: 46fa 89bb fac9 bcbd e809 22be 638a 82bb
00000310: 432b ccbd f2e0 983d d77c 583d f9cb de3c
00000320: 5a84 b6bb 3c67 cc3c 26ad 44bd d7ab 843d
00000330: 0c06 f0bd 14e9 04bd 9e4c 62bd 62ae 943d
00000340: 1bcf cd3d 43f7 023e d346 18bd a17d babc
00000350: 8ff3 433a 45e9 54be 0a0d 6cbd e26b 07bd
00000360: 23c2 073e 36f6 0f3e e648 353d 7972 7dbd
00000370: 74dc 0ebe 2331 11be b2b6 36be 8ee7 80ba
00000380: 1e9a 63bd c10e 0fbc f23d 6b3d 75f7 213e
00000390: 5112 75bd 7da0 283d e337 023e 3085 bfbc
000003a0: 6748 55bd 4055 f9bb 7bde 3bbd 793a ad3d
000003b0: 1de1 80bc f61a c03d 326c 653d bede e53c
000003c0: a50a 443b aadb 053c 0598 2d3d f429 093c
000003d0: 5a7c 18bc 5752 8a3d 7a7b 9fbd cabb 52bd
000003e0: 8dda 3dbd e52c c7bd 72af 9cbd 98bd 29be
000003f0: c9d6 d13d b29a 123e 1b00 df3d c615 60bd
-0.1312843 0.0062733474 -0.006581336 -0.064425 -0.16781592 -0.14877623 -0.03149475 -0.10002642
-0.11125576 0.117508635 0.015687795 -0.021071348 -0.02661676 0.0332018 0.10918782 0.03075515
-0.031893417 -0.016813695 -0.122435786 -0.12282756 -0.13367781 -0.19032349 -0.15171292 0.017068686
-0.018335313 0.09146719 0.06001457 0.040176265 0.063792415 -0.08043753 -0.12869701 0.05801193
-0.07575778 -0.0023267625 -0.008910564 -0.079624996 -0.03161631 0.009546521 0.1126199 0.04252912
0.083217196 -0.01812349 0.0628767 0.08919285 0.021054458 0.078977175 0.055310756 0.052921675
-0.05666002 0.028504947 0.030169856 -0.03155281 -0.10627977 -0.10581842 0.026436955 0.045189224
-0.023717193 0.040082604 -0.07556908 -0.035736468 0.0362738 -0.066610776 -6.4738386e-05 0.10888999
0.10835422 0.11087566 0.055155113 0.119361304 0.020987509 0.08650337 -0.027602071 -0.083482586
-0.0586802 0.019374495 0.04874441 -0.007043104 0.070046194 -0.016688848 0.0105720125 0.027660893
-0.014460927 0.0015446914 -0.053497758 0.071647175 -0.07703025 -0.020415535 0.00861337 -0.060968064
-0.022608891 0.053388912 -0.0687282 -0.1368742 -0.008525862 -0.08321418 -0.005413201 0.041644454
-0.12688297 0.029997481 0.10045141 -0.07415431 -0.09173514 -0.01085871 -0.10818515 -0.16331068
-0.15000713 -0.0935568 -0.14599895 -0.053342316 0.024146428 0.12891495 0.07732796 0.04076581
0.04413956 0.018497026 -0.09657223 -0.12102957 -0.15871154 0.030723615 0.0402671 -0.009045836
0.01198867 0.053118113 0.06294746 -0.11206258 -0.09560847 0.018247554 0.057202782 0.05966167
-0.038684666 0.1147644 0.07017876 0.083118126 0.034770392 -0.03405038 0.03656427 -0.10063045
-0.05403017 0.042239144 -0.041144326 -0.03456753 0.032284312 -0.0077411346 -0.0038216293 -0.09445173
-0.069919445 -0.102081224 -0.03859179 -0.0637808 -0.17705333 -0.13884678 0.052653894 0.014867723
-0.097978175 0.06687179 -0.0009584911 0.077907376 0.13922937 0.15730892 0.053639255 0.026908007
-0.0038043903 -0.09187115 0.096998446 0.048629694 -0.14372364 -0.023829993 -0.18217094 -0.19681494
0.03861659 0.0021859347 -0.029083723 0.10687987 0.02842585 0.15830697 -0.18191163 -0.1443906
-0.0152371675 -0.06263809 0.0008924247 0.06072007 0.12639372 0.047481984 -0.019384481 -0.12738718
-0.1469741 -0.12712319 -0.15196069 -0.058633607 -0.093681574 0.061650246 0.11124049 0.09501665
-0.004210743 -0.092182115 -0.15824091 -0.003983782 -0.09969189 0.0746478 0.05285343 0.027196871
-0.0055699768 0.02495157 -0.04801669 0.06478088 -0.11719903 -0.032448843 -0.05524885 0.072598234
0.10049268 0.12789635 -0.03717692 -0.022764983 0.0007474953 -0.2079211 -0.057629623 -0.03306187
0.13257651 0.14058766 0.044258974 -0.061876748 -0.13951284 -0.141789 -0.1784313 -0.0009834634
-0.0555669 -0.008731545 0.057432123 0.15817054 -0.05983192 0.04116868 0.12716632 -0.023378938
-0.052071 -0.0076090395 -0.04586647 0.084584184 -0.015732342 0.093801424 0.056011386 0.028060313
0.0029913571 0.008170048 0.042381305 0.008371819 -0.0093069915 0.06753986 -0.07787223 -0.05144862
-0.046351004 -0.0972536 -0.07650651 -0.1657623 0.10246045 0.14316824 0.10888692 -0.054708265

convolutional_layers.1.0.bias f4 [16]
00000000: 22f1 643d 90db 1bbc d8a9 74bd 618d 1abd
00000010: 5bed 64bd 88ed cebb ecb9 8abd 106b 88bd
00000020: 1247 9bbb 5f16 bbbc 207c 203c 9db4 acbc
00000030: 5eac a7bd efbb c3bd e7e0 793d e611 9cbc
0.055894025 -0.009512797 -0.059732288 -0.037732486 -0.055890422 -0.006314937 -0.06773743 -0.066610456
-0.004738697 -0.022837816 0.009795219 -0.021082217 -0.08187173 -0.0955733 0.0610055 -0.019051503

fully_connected_layers.1.weight f4 [128, 784]
00000000: 1e0e 623c 9499 c8bc 258d c5bc 0cad 96bc
00000010: 5210 b8ba bc56 b03c cb5a af3c 2252 cc3b
00000020: 31f1 0d3c fc78 11bd df80 cdbc c06b 24bd
00000030: 1c49 c0bb 3bda 33bb 4422 18bd 9f74 d2bc
00000040: 2630 dd3c a0c5 713c 5123 77bc 903d 96bc
00000050: a568 bf3c 179c f23c adaf 8e3c e18e babb
00000060: 997d f2bb bbd8 e93a 9f33 c03c 467a 23bd
00000070: c38b d2bc e207 8fbc 1de3 b7bc bb0f a63c
00000080: 6fe1 ed3c d558 eb3c e77c c2bc 1009 07bd
00000090: 223c 79bc e4cf cbb9 9586 01bc 67f8 d83c
000000a0: 30bf 663c dbf1 67bc e0ff 14bd f1ed b5bc
000000b0: 84bd d63c 790f b9bb b2de 94bc 0c24 74bc
000000c0: b5e0 a13b ed68 18bd 3420 f23c c655 dcba
000000d0: 3475 173d e6c0 27bd 0ee4 cd3c 8ed8 26bc
000000e0: e0ce 5fbc b805 28bc 052e 49bb e6fa 00bd
000000f0: ec24 eb3c f690 8f3c ed44 bebc 4d2b f3bc
00000100: 1a93 4a3b 77f6 febc 44f4 163c e588 9bbc
00000110: 9b20 03bc 9dc5 9cbc d003 be3c 3a35 c33b
00000120: f669 0cbd dbd9 08bc 0a3a cdbc 45f3 b93c
00000130: f650 16bd 4092 673c 816e abbc 8fb5 e9bb
00000140: d2f8 403c 859c 83bc 0c1f c2bc 6b88 253c
00000150: 1e72 b6bc 4c38 dcbc d748 43bc df3b 03bd
00000160: 2f07 073c fc3d 0d3d 3f64 38bc 3fdd ec3b
00000170: 4382 5ebb a789 963a 8efa 17bd 1758 c03b
00000180: b85b 4b3c e65c e33c 8086 81bb d030 acbc
00000190: ee0b 363b e92c b63b a4f6 f83b 37ca ba3b
000001a0: e294 01bd 127d 0ebd f1b4 813c 0cf8 d63c
000001b0: e1bd d83c 85e0 febc 182e f13b f624 19bd
000001c0: 2eb0 623c c8b2 9abc 6b5b 25bc 0e13 e4bc
000001d0: c6db de3c 937f 6239 3915 313b 02cb e13c
000001e0: 261f 733c 160a d03c ab37 ab3c 3b9f eabc
000001f0: 4ddf 5fbb 9a0d 74bc b13e e13c afe3 cebc
00000200: 612d 40bc 0c5e b4bc 4d32 7cbc d196 b0bb
00000210: 8f3d e836 80d2 f5bb 5849 12bd 776e 1cbc
00000220: 0c40 0cbd deb3 473c d957 7ebc cf6a 87bc
00000230: a20e 22bd b49e 933c 46e5 8dba 5417 a1bc
00000240: 04e2 84bc 1d94 8b3c 8eb5 ccbc 903f d93c
00000250: a0c7 efba d49c 003c 6f6b d73c 08fd d8bb
00000260: ec23 aebc b85d c8bc 18f6 a33c e413 a5bb
00000270: 59db cd3c 5ab2 5bbb f7d3 a13b 78e4 b93c
00000280: 60df 0fbb dc54 9ebc 1ff9 6f3c ffce d83c
00000290: fc88 95bc 4cef bc3c b4ae 61bc bacd ec3c
000002a0: 77e3 9bbc 8d92 4d3c c2d5 17bd 1ba5 4b3a
000002b0: 4dad 74bb 07eb 97bc b49e a33a 28ca cb3c
000002c0: d532 e2bc 3cb0 753b 8e74 e7bc 7b02 113b
000002d0: 6635 aabb a387 97bc 005d 47bc 78fa 76bc
000002e0: 755a ea3c d245 19bd 144a ea3c c34a 6b3b
000002f0: 46d2 00bc b03a c5bc 7c70 96bc 96e1 ff3c
00000300: 778d a1bc 0585 19bd 9ed7 21bd 43ed a1bc
00000310: 35ea a13c e018 71bb d6bc 993c f863 a7bc
00000320: ccc9 9cbc eb14 083d 56d2 cd3c 9c64 49bc
00000330: 75f0 013d e0ea b23c 407f 1cbd c0a4 e7bc
00000340: 97a0 9bbb f8e5 963b 2d28 02bd ac9c a3bc
00000350: cbd4 e53c 3dcb 08bd 6d37 da3c 0ec5 aabb
00000360: 606b 943c d0fd 78bc d47c c9bb 6ebd 933c
00000370: 5a72 723c 8fe3 e9bb e50d 8bbc 40f2 3a3c
00000380: 7bd3 0cbd 3611 e3bc dd5d c6bc 3ee0 343c
00000390: b509 edbc 26b9 efbc 62fd a4bc 662e 97bb
000003a0: 85a0 033d 7e64 05bd e873 88bb 3ba0 e3bc
000003b0: f653 6f3b 6aa5 a9bc 9e63 0dbd 0e65 10bd
000003c0: 76a3 e73c 29d4 0dba fa9b bcbc 1406 e43c
000003d0: 528a 983c c69d 373c 018c 0fbd a7a5 0ebc
000003e0: cc12 22bd 313f f2bc 4df4 78bc baeb 98bc
000003f0: 4c19 ec3c 11ef e63c 6d94 7bba 8326 0ebb
0.013797311 -0.024487294 -0.024115155 -0.018393062 -0.001404295 0.021525733 0.021405598 0.006235377
0.008663462 -0.03551577 -0.025085865 -0.04014182 -0.0058680903 -0.0027443308 -0.037142053 -0.025690375
0.027000498 0.01475659 -0.015084104 -0.018339902 0.023365328 0.029615445 0.017417753 -0.005693302
-0.0074002263 0.001784108 0.023462115 -0.03991153 -0.02570141 -0.017459814 -0.022447163 0.020271173
0.02903816 0.028728882 -0.023741199 -0.032967627 -0.015212091 -0.00038874068 -0.007905622 0.026485635
0.014083669 -0.014156784 -0.036376834 -0.022208186 0.026213415 -0.0056475964 -0.018172596 -0.014901172
0.0049401172 -0.03720944 0.029556371 -0.001681023 0.036977008 -0.040955447 0.025133159 -0.010183467
-0.013660163 -0.01025527 -0.0030697596 -0.031489275 0.02870413 0.017525177 -0.023226226 -0.029683733
0.0030910433 -0.031123383 0.009213511 -0.018986175 -0.008003379 -0.019137198 0.023195177 0.005957273
-0.03428074 -0.008352722 -0.02505209 0.022699008 -0.036698304 0.01413399 -0.020926716 -0.007132239
0.011778073 -0.016065845 -0.023696445 0.010103325 -0.022271212 -0.026882313 -0.011919222 -0.03203952
0.008241459 0.03448294 -0.011254369 0.007228523 -0.0033952154 0.0011485115 -0.037104182 0.005869876
0.012412004 0.027754258 -0.003952801 -0.02101937 0.0027778107 0.005559553 0.007597761 0.0057003754
-0.031636126 -0.034787245 0.01583335 0.026241325 0.026457729 -0.031112919 0.007360231 -0.037388764
0.01383595 -0.018884078 -0.0100925965 -0.027841117 0.027204406 0.00021600565 0.0027020706 0.027562622
0.014838969 0.025395434 0.020900568 -0.02864038 -0.0034160197 -0.014895821 0.027495714 -0.025255052
-0.011729569 -0.022017501 -0.015392852 -0.0053890725 6.921305e-06 -0.0075019 -0.035714477 -0.009547821
-0.034240767 0.01218888 -0.015523874 -0.016530422 -0.039564736 0.018020011 -0.0010825775 -0.019664444
-0.016221054 0.0170384 -0.024988916 0.026519567 -0.0018293746 0.007849891 0.026296346 -0.0066219606
-0.021257363 -0.024458751 0.020014808 -0.0050377715 0.025129007 -0.0033523054 0.0049385983 0.02269195
-0.002195321 -0.019327573 0.014646797 0.02646589 -0.018253796 0.023063324 -0.013774563 0.028906692
-0.019029362 0.012547147 -0.03706909 0.0007768438 -0.003733474 -0.018544687 0.001248321 0.024876669
-0.02761213 0.0037489077 -0.02825382 0.0022126723 -0.005194354 -0.018497294 -0.012168169 -0.015074365
0.028607586 -0.0374201 0.028599776 0.0035902716 -0.007862633 -0.024075836 -0.018364184 0.031235497
-0.019720776 -0.037480373 -0.03951227 -0.019766456 0.019764999 -0.0036788508 0.018766802 -0.020433411
-0.019139193 0.033223074 0.02512471 -0.012292054 0.03172346 0.021840513 -0.038207293 -0.028276801
-0.0047493684 0.004605051 -0.031776596 -0.019972168 0.02805557 -0.033396948 0.026637757 -0.005211479
0.018117607 -0.015197232 -0.006148914 0.018034663 0.014797771 -0.007137723 -0.016974399 0.011410296
-0.03438137 -0.027718168 -0.02421468 0.011039792 -0.028935293 -0.02926309 -0.020140354 -0.0046136854
0.032135505 -0.03256654 -0.0041642077 -0.027786365 0.003651855 -0.020708758 -0.03451883 -0.035252623
0.028276186 -0.00054103375 -0.023023594 0.02783493 0.018620644 0.01120705 -0.035045628 -0.008706487
-0.039568707 -0.029571148 -0.015194965 -0.01866709 0.028820656 0.028190168 -0.00095970073 -0.0021690435

fully_connected_layers.1.bias f4 [128]
00000000: a7ff edbb 0075 333c fab0 8e3c 4e80 263d
00000010: 8f2c b0bc 90b4 983c 5dd3 d93c fc10 2b3d
00000020: b473 49bc a184 efbc 642a a8bc daec 03bc
00000030: 6e69 ea3c 9f8c 083d ddb4 88bb 6fe9 463c
00000040: 6a21 dc3c d4fc 273b 7e77 19bc b3ff 413b
00000050: 5055 123b 8e23 0ebd 8406 b1bc 3544 7dbc
00000060: 21ab 283c bb50 143d 67b4 bebc 33e2 2d3c
00000070: 4307 10bd 3bd7 7e3c 9917 d4bc ebdb 16bc
00000080: 7f9a e13c 00e0 33bc bef4 b53b 36ee 98bc
00000090: 2c6b 023c b994 1ebd 2037 173d 7b66 5c3d
000000a0: a7fb 223d 24d1 aebc 4d4a 1a3d bc3e 583d
000000b0: 3c78 033d c40c 21bd 4a6b 12bc 786c eebc
000000c0: 36ff 913a 40a4 2bbc 0a2a e83c 9f1d 703c
000000d0: 871e 24bd 7b71 2e3c 5537 50bc 4886 0b3c
000000e0: 9815 95bc e343 e8bc e229 af3b cb7f b5bb
000000f0: 7e3b 5dbb eacf 82bc e528 4c3c 376f 633b
00000100: ab02 3dbc 1cff 15bd 75d8 103c 8763 8f3c
00000110: 1181 803b b892 57bd 42c4 c13c 17ca a53c
00000120: 1041 35bc 2d67 20bc 7c9d 91bc b30f 54bc
00000130: 2b5e 1abd ae5e 003d 7443 2fbc 6aaf b7bc
00000140: c775 093b 77a9 3fbc 1470 4f3c 4679 ea3c
00000150: 0a18 4dbb 9e48 c63c 0c27 15bb bd88 b5bc
00000160: 729d 2b3c 19b4 ab3c 9a75 c3bc 762e 26bd
00000170: 2a65 bcbc 36ff f83c 34a4 edbb 6496 323c
00000180: 11a9 dbbc bd28 103d c93f d7bc 44d5 e5ba
00000190: 06ae 8f3c 32b2 053d 783f f5bc 8841 663c
000001a0: 25e3 703c 94b1 41bc b26f c53c 6060 353b
000001b0: 43fc 833c 9dc4 c0bc 927b 32bd b9e0 b4b9
000001c0: 1b15 ba3c 4a99 11bd 5cff 043d d81e 9f3b
000001d0: 819d cd3b 4643 07bd 817e 263c 2bfb 953c
000001e0: c764 2dbd 3672 02bc 5ca9 da3c 589b 0dbd
000001f0: 614b c43c 360a 333d 0533 efbb 1abf c8bb
-0.007263142 0.010953188 0.017418373 0.040649705 -0.021505622 0.018640786 0.026590044 0.041764244
-0.012295652 -0.029238047 -0.020528026 -0.008052075 0.028614726 0.03333723 -0.004171951 0.012140616
0.026871402 0.0025632875 -0.009366868 0.0029601872 0.0022328682 -0.034701876 -0.021609552 -0.015458156
0.010294707 0.036209803 -0.023279382 0.010613012 -0.035163175 0.015554245 -0.025890158 -0.009207706
0.02753949 -0.010978699 0.005552857 -0.018668275 0.007960122 -0.03871605 0.036917806 0.05380867
0.039790776 -0.02133996 0.037668515 0.052794203 0.032097086 -0.039318815 -0.0089367125 -0.029104456
0.0011138681 -0.010476172 0.028340358 0.0146555 -0.040068176 0.010647173 -0.012708505 0.008515902
-0.018198773 -0.028352683 0.005345569 -0.0055389157 -0.0033757384 -0.015968282 0.012460922 0.003470374
-0.011536281 -0.036620244 0.00884067 0.017503513 0.003921636 -0.052630156 0.023653153 0.020237966
-0.011062875 -0.009790224 -0.01777529 -0.012943196 -0.03768746 0.031340294 -0.010697234 -0.022422511
0.0020974742 -0.011698118 0.012660999 0.02862228 -0.0031294846 0.024204548 -0.002275887 -0.022159928
0.01047455 0.0209599 -0.023859788 -0.040571652 -0.022997458 0.030395132 -0.0072522406 0.010900114
-0.026814016 0.0351951 -0.026275532 -0.0017534872 0.017539036 0.032640643 -0.02993749 0.01405371
0.014702593 -0.011822123 0.024101112 0.0027675852 0.016111499 -0.023531253 -0.043574877 -0.00034499707
0.022715142 -0.03554658 0.032470092 0.004855972 0.0062748794 -0.03302314 0.010161997 0.018308243
-0.042332437 -0.0079618 0.026692085 -0.034571975 0.023961725 0.04371091 -0.007299783 -0.0061262967

fully_connected_layers.3.weight f4 [10, 128]
00000000: e0f4 723d 5b24 a0bb 5c40 f0bd 323e 43bd
00000010: 2d0d e23c b277 b53c 48e9 cbbc 20e4 a6bd
00000020: 1210 c53d 95df 413d a790 853d 78c6 713d
00000030: 0465 0f3b b25d b33d 33c5 7cbc 3635 b3bc
00000040: 51ea b5bd e9fe 113d 2242 22be dab4 bdbd
00000050: 7c57 1abd 474e e7b9 f50f 1e3d 91b6 d7bd
00000060: 133a 033e 9eed 993d 3d16 033d ecd3 d3bd
00000070: 5ab2 d0bc 91a7 f83d bc0c 623d 5e9d 0dbe
00000080: 9f5b 7d3d d55c 86bd 76a8 c13d 99f3 a0bd
00000090: 42d7 733d be62 a7bc 51e1 913d a032 abbc
000000a0: 086e 3a3d bfbf d43d ede7 c6bb 2b00 4f3d
000000b0: 6b9d cb3d b390 a5bd 2fb8 ebbd 9717 bdbd
000000c0: 2a72 68bd 6360 0f3d 4c2c 873d 35ed 5dbd
000000d0: 3173 c938 1e47 fd3d 07f4 04bd 34af 973d
000000e0: 7579 e8bd f56e 58bd 58d2 8f3d d086 f3bd
000000f0: e490 e63d 87bf 5b3d f674 493d 4b68 013d
00000100: 0add 163d d8a7 7abd 0265 01bb 66e8 17be
00000110: 96f4 623d a5b7 56bd 0ccd 3a3b 46f7 88bd
00000120: 4c9a b43c e1a9 273d 176b 8f3d 1071 1dbe
00000130: 4823 913d 0fb7 afbc 491b de3d 1326 babd
00000140: 7a22 e8bd 98d5 d2bd 55a9 47be 1bd9 debc
00000150: ab7d 443d 0876 8ebd 4eaf 093e b497 6e3c
00000160: c47c 1abe 1787 9cbd a548 953d b6d4 813a
00000170: 3045 b93d 70b0 f73d 9eed 9b3d 3592 ae3d
00000180: 4e4e ca3c 8eef d1bd 84e1 3cbd c122 523d
00000190: c27d 313c 7aea febd e41d 72bd 50eb bdbd
000001a0: 00cb c53c b78d a43c 21ad d43d 04f2 f03c
000001b0: 74f4 8ebd 3bcc 583b 806a acbd 88df 413d
000001c0: f477 573d 6810 dabd 3f4a 223d ba31 28be
000001d0: 0c2e abbd 7db8 713d fc58 443c fbac a4bc
000001e0: b9cd c6bc c413 91bd 5b33 6b3d 4983 a9bd
000001f0: 2761 7ebd a6e7 d6bd 2eaf 99bd bedb e6bd
00000200: d006 6fbd 62e8 82bd 71da 043d fe13 b5bd
00000210: 7dbc 0b3d e113 843d 850d 80bc 00af 0d3c
00000220: cf07 2abe ad3c 4fbd 2c51 d03c 0f87 8f3d
00000230: 06a3 b83d 8f96 93bc 11eb 853d 2e11 c53c
00000240: b80b f33c 2c9d 193e 2ea2 073d 89ea e73c
00000250: b1ee 463d c926 463d 4177 9ebd d684 1abe
00000260: ebe2 8ebb 486c b8bd 2771 00be 9e5a 783d
00000270: 95a0 483d 5b96 e93d ff71 443d f8f6 153e
00000280: 8ac0 1ebd b199 103d 44ad 64bd 265d 31bc
00000290: a7b0 083d f8f9 433d 0a91 553e b167 b73d
000002a0: a6dc ea3d 832a f63c e7d9 673d aa48 183e
000002b0: 7380 e1bd 7a01 653d 8f07 eebd fc4f 2ebc
000002c0: 9f63 a4bc 99e6 cbbd 73e0 a03d b512 6c3c
000002d0: fefe 783d 7d07 ca3c fa6a 9d3d cab5 21bd
000002e0: 70f6 e83d ce81 d83c d3e5 fe3d 0e2d f7bd
000002f0: 6ecb 16be 5574 57bc ab49 8dbd 45a5 173c
00000300: 1eda 3abe 414c 2ebe ea43 b3bd df9b e33c
00000310: 3763 b3bc 2541 91bd 9202 e1bd 4ba5 c93d
00000320: 4c4d c83c 3671 a33d 98d2 bdbc 18fd 4e3d
00000330: 4c80 82bd d285 24bd 35e1 dbbd 4c42 8dbd
00000340: 353c 8dbd c294 cc3c d6fb ec3d 4cdd 33bd
00000350: 1d80 67bd d3ff e03c 5edf f93d 9c28 4c3d
00000360: 2000 d23b e894 083e f2ca 103d ab8f 1abe
00000370: 2dd7 42bc 4403 fdbd daff 173d 5a02 cbbd
00000380: 1bb3 abbd 751d 2a3d 569d 66bc 23b0 37be
00000390: 5339 9c3c b14b 653d aef9 8bbd bab3 3fbc
000003a0: 51cf 5c3d 74f6 8dbd 2be7 3f3c 8311 543c
000003b0: 6928 18bd c348 08be af2f 46bd 1679 b63c
000003c0: 7fa2 b33d d2ed 263d 2d85 2b3d f76e 07bc
000003d0: 28f2 3bbe ee8e b9bd a6a4 e73c 0584 dc3c
000003e0: fcbc 893d 5677 2d3d 80d0 21bd 17fb 0e3a
000003f0: 91b0 f3ba cef6 9a3d 5b97 c1bd d5eb 153e
0.059315562 -0.0048871464 -0.117310256 -0.047666736 0.027594173 0.022151802 -0.02489151 -0.0814898
0.09622206 0.047332365 0.06521731 0.059027165 0.0021880278 0.08758105 -0.015427875 -0.021875959
-0.08882583 0.035643492 -0.1584554 -0.0926301 -0.037681088 -0.00044118075 0.038589437 -0.10532869
0.12815122 0.07516025 0.03200363 -0.10343155 -0.02547567 0.12141336 0.055187926 -0.13829562
0.061854955 -0.06560675 0.094559595 -0.078589626 0.059531458 -0.020432826 0.07123054 -0.020898163
0.04551509 0.10388135 -0.006070128 0.05053727 0.099421345 -0.0808424 -0.115097396 -0.09233015
-0.0567495 0.03500403 0.06600246 -0.054181296 9.605883e-05 0.1236708 -0.032459285 0.07406464
-0.11351291 -0.052840192 0.07022542 -0.11890948 0.112581044 0.05364945 0.04918381 0.031593602
0.036831893 -0.061195225 -0.0019744043 -0.14834747 0.055409037 -0.05242123 0.0028503565 -0.06687789
0.02204623 0.040933494 0.07002848 -0.15375161 0.070868075 -0.021449594 0.10845048 -0.09089293
-0.11334701 -0.10294646 -0.19498189 -0.027203133 0.04797141 -0.069561064 0.1344578 0.014562536
-0.15086657 -0.07642954 0.072892465 0.0009905312 0.090463996 0.120942 0.07613681 0.085239805
0.024695542 -0.102507696 -0.046113506 0.051302675 0.010833206 -0.124470666 -0.059110537 -0.09273398
0.02414465 0.020087106 0.10384584 0.029412277 -0.069802195 0.0033080715 -0.08418751 0.047332317
0.05260463 -0.106476605 0.039621588 -0.16425219 -0.08358392 0.059013832 0.011984106 -0.020102015
-0.024268018 -0.07083848 0.057422023 -0.08276994 -0.06210437 -0.10493402 -0.07504116 -0.11272381
-0.058356106 -0.0639198 0.032434884 -0.08841704 0.034115303 0.06449104 -0.015631447 0.00864768
-0.16604541 -0.050594974 0.02542933 0.07008182 0.09015469 -0.018016128 0.06538976 0.024056043
0.029668674 0.15001363 0.03311365 0.028310077 0.048567478 0.048376832 -0.0773759 -0.15089735
-0.004360547 -0.09005028 -0.12543164 0.060633294 0.048981268 0.11405631 0.047960278 0.14644992
-0.03875784 0.03530282 -0.0558293 -0.010825431 0.033371594 0.04784581 0.2085611 0.089553244
0.114678666 0.030049568 0.056604292 0.14871469 -0.11010828 0.05590961 -0.116225354 -0.010639187
-0.020067034 -0.099560924 0.0785531 0.014408757 0.060790055 0.024661774 0.0768642 -0.03948001
0.11375129 0.026429083 0.12446179 -0.120691404 -0.1472604 -0.013150294 -0.06898817 0.009255712
-0.18247268 -0.17021276 -0.08753188 0.027784286 -0.021897895 -0.070925035 -0.109868184 0.0984598
0.02445092 0.07980578 -0.023171708 0.050534338 -0.06372127 -0.040166683 -0.10736314 -0.06897411
-0.06896249 0.024973277 0.115714714 -0.043912217 -0.056518663 0.027465736 0.12200807 0.049843416
0.0064087063 0.13338053 0.035349794 -0.15093867 -0.011892122 -0.123541385 0.037109233 -0.09912558
-0.08383771 0.041532 -0.014075598 -0.17938285 0.019070303 0.055980388 -0.06834732 -0.011700565
0.05390865 -0.06931773 0.01171283 0.012943628 -0.037147913 -0.13309006 -0.04838532 0.022274535
0.08771228 0.040754147 0.041875053 -0.008266202 -0.18354094 -0.09060465 0.028276753 0.02691842
0.06725499 0.042350136 -0.03950548 0.00054542854 -0.001859205 0.075666055 -0.09452697 0.14640744

fully_connected_layers.3.bias f4 [10]
00000000: ec02 cbbc b9a9 803d 88e2 89bd d64d 643b
00000010: 378a 8f3c 6943 57bc 5abf cc3c aefc 05b9
00000020: e16d aabd 05e2 7ebd
-0.024781667 0.06282372 -0.067326605 0.0034836433 0.01752196 -0.01313863 0.024993587 -0.00012777999
-0.08321739 -0.062227268
